api/Q_Layered_Network/reasoning_dqn_model.pth (torch, 139904 bytes, 6 tensors)

fc1.weight f4 [128, 128]
00000000: 9803 4ebe bce2 a13d 4fbc 54bc fdab 48bc
00000010: a5a2 65be f921 88be e741 2ebd d01c 1fbe
00000020: 3776 69be 85aa 273e 4895 f13d dc3d bb3d
00000030: 409c 323e 1bbb 4dbe df6e 993e 808a dbbe
00000040: 87a7 c8be c66f 5ebe 5ef0 71be f939 bcba
00000050: 5912 99bd 8b4c 51bd 9ff8 0dbd f0df 663d
00000060: 1f28 b6bc 8b35 bbbd c48d 803c a7d7 003d
00000070: 276b 5ebd bd69 dbbc d942 e83c 1d5c 853d
00000080: a168 363d ccbf 793d 3ff3 a3bd e559 c6bd
00000090: 3a69 58bd e854 aa3c f282 343d 3596 dc3b
000000a0: 1246 c6bd c87f 9dbd 0dc1 8ebd 98e9 55bd
000000b0: c1f9 70bd 2c71 993d c3d4 413d a14e fcbc
000000c0: f754 d9bc 984b 02bd a710 683d dc05 12bc
000000d0: f4c8 973d 2be8 163d 0c04 4f3d 0d77 4cbc
000000e0: bdf3 1b3d 4a4c 94bd 9dc3 84bd 8de8 8d3d
000000f0: 3429 a53d ba2d 53bb 484f 7a3d cf3e bc3c
00000100: b58d 863b cf16 2a3d b6df 99bd bb8c 6d3d
00000110: 8f49 8cbd f4bf 8b3d 5ccd 913c f56b b13c
00000120: 3d0a 133d 587c 97bd cf1e 8cbd 954b abbd
00000130: 2132 2b3d 8344 2d3d c3d1 b33c 7878 a0bc
00000140: c7ae 9d3d 64c5 f0bc 63f2 903d 9ffc 893d
00000150: d0ee 7bbc 9feb 50bd 3c47 ee3c 7ca7 9abd
00000160: 6e96 793d 4b58 86bd 9d0b 9f3d 2806 163c
00000170: b03b 9dbd 007d 9b3c 005f f63c eae8 20bd
00000180: 2608 0ebd 343a f0bc 19d7 943d d193 8c3d
00000190: ba5c 4a3d 96b1 6b3d 3e23 603d 87f4 813d
000001a0: 45c2 45bd a895 1fbc 6677 efbc 1003 813c
000001b0: eb69 963d 009c eab8 f889 17bc 8ce7 28bd
000001c0: 66a1 7cbd 1541 92bd 82c8 6b3d 03eb 59bd
000001d0: 2a18 4cbd 3911 7fbd 2016 b13b e08e 1a3c
000001e0: 1e77 583d 595e 973d 805b 5e3c ae63 0fbd
000001f0: 33dc 43bd e2ca 07bd fdaf a8bd ffb3 71bd
00000200: fb27 71be 9d66 7bbb 4ab4 133d 8d8d cbbd
00000210: 5713 15be c112 5ebe 439c 83bc bf46 613e
00000220: b0c4 8d3c 3e8d 1abe 8ef6 103e d33e 153c
00000230: a84d 99bd dadd b13d 48e4 1cbe e791 463e
00000240: fba9 a4bd 5c41 733d f34b 19be 8b35 313d
00000250: e573 4d3e 4636 613e 4d9f d03d 2f78 053e
00000260: 9d21 dcbb 7d34 b83d 760d 0dbe 4864 803d
00000270: 455d 613c 6ccf 33bf 0588 82be 7b2d 09be
00000280: 10f0 19be 25ac 77be c3b0 bebd c502 f2bd
00000290: 8912 00be 6250 053c caa5 aabd da57 8f3d
000002a0: 0ed6 9cbd 2cf0 dfbc 10fc 7d3c 0e2b 003b
000002b0: 52dd 89bd c100 81bc c61f 903d f9dc 353c
000002c0: 5a71 b13c b1d8 82bd 9dce 513d 9e2e 4e3d
000002d0: 2ef5 17bb 82e8 053c ef89 eebc 4d6b 8ebd
000002e0: 83d4 8abd ca30 46bd 885d d3bd 7e4f b1bc
000002f0: d2a8 3e3b e4cd 15bc bad8 0cbc d108 c03c
00000300: 3ecc 92bc dff0 923d 8aa0 e13c 893b 643c
00000310: c844 69bd 5665 c63c 232a 72bd 9ea9 cfbd
00000320: 2fa0 91bd 905d f9bc ec01 54bc d68e 7f3c
00000330: 813a 8cbd b259 81bd c229 563c 4b60 1f3c
00000340: 4050 b4bd a4a3 bcbc 008d a039 f6cc 7a3d
00000350: 310c 19bd f3ac 873d e1a2 96bd 7e9b 793d
00000360: feaf 563d 9c90 e93c b62c 173d 1a81 6e3d
00000370: 64cf f6bc d4b8 4fbd 340d 83bd 76c6 7fbd
00000380: 10ad 5f3c 1e4f 6b3d 2b60 06bd 7dad 32bd
00000390: 84b6 9a3c c026 15bd c280 633d c13b ae3d
000003a0: 9875 61bc 34f0 aabd 2f15 69bd d061 e73b
000003b0: 969c 243d 16c8 5e3d 0a81 643d 2ae1 283d
000003c0: 76f8 223d 4196 30bd 62bc 653d 8cda c4bc
000003d0: 8e93 383d 3f05 a63d e0d6 033b deae 7c3d
000003e0: 736c 95bd 3b89 a43d e38d 90bd 74b0 0a3d
000003f0: e141 05bd 22c1 1d3d 104d 47bc fea7 553d
-0.20118558 0.07904574 -0.012984349 -0.012248036 -0.22425325 -0.2658842 -0.042543318 -0.15538335
-0.22799002 0.16373642 0.11796051 0.09142658 0.17442417 -0.20090906 0.299674 -0.42879105
-0.39190313 -0.21722326 -0.23626849 -0.0014360539 -0.07474203 -0.051098388 -0.03466093 0.056365907
-0.022235928 -0.09141072 0.0156926 0.031455662 -0.054301407 -0.026783818 0.028352188 0.0651171
0.044533376 0.060973927 -0.0800538 -0.09685115 -0.052834727 0.02079244 0.04407019 0.0067317733
-0.096813336 -0.07690388 -0.06970415 -0.052224725 -0.058831934 0.07492289 0.047322046 -0.030799212
-0.026529772 -0.031810373 0.056656506 -0.00891253 0.07411376 0.036842506 0.05054097 -0.012479556
0.038074244 -0.072411135 -0.06482623 0.06929121 0.080644995 -0.00322233 0.061110765 0.022979168
0.0041062483 0.04152566 -0.075133726 0.05799554 -0.06849968 0.068237215 0.017798118 0.021657923
0.035898436 -0.073967636 -0.06841814 -0.083640255 0.041795854 0.042301666 0.021950608 -0.019588694
0.07699352 -0.029390998 0.070774816 0.06737637 -0.015376762 -0.051005956 0.029086702 -0.07551476
0.060934477 -0.06559809 0.07765887 0.009156741 -0.076774 0.018980503 0.030074596 -0.039284624
-0.03467574 -0.029324628 0.07267589 0.06864131 0.049404837 0.057542406 0.05472111 0.06345468
-0.048280973 -0.009740271 -0.029231738 0.01574853 0.07344421 -0.00011187047 -0.009249203 -0.041236445
-0.06167736 -0.0714132 0.057564266 -0.05320264 -0.049827732 -0.062272284 0.005404249 0.009433478
0.052847974 0.07391042 0.01357162 -0.03500717 -0.04781742 -0.03315247 -0.08236692 -0.05900955
-0.23550408 -0.0038360723 0.03606061 -0.09939108 -0.14558159 -0.21686842 -0.016065722 0.21999644
0.017305702 -0.15092942 0.14156553 0.009109217 -0.07485515 0.08684893 -0.15321457 0.19391595
-0.08040234 0.059388503 -0.14970379 0.043263953 0.20063742 0.2199336 0.10186634 0.13034128
-0.006717874 0.08994386 -0.13774666 0.06269127 0.013755147 -0.70238376 -0.254944 -0.13396256
-0.15032983 -0.24186762 -0.09311058 -0.118169345 -0.1250707 0.008136841 -0.08332403 0.06999178
-0.07658015 -0.027336203 0.015501991 0.0019556913 -0.067316666 -0.01574743 0.0703731 0.011100047
0.021660496 -0.06388987 0.051222432 0.050337426 -0.002318691 0.00817311 -0.029118506 -0.0695406
-0.06778815 -0.048386373 -0.10320574 -0.02164435 0.0029092324 -0.009143326 -0.0085965935 0.023441704
-0.017919656 0.07174849 0.027542371 0.01393021 -0.05695036 0.024218243 -0.059122216 -0.10139774
-0.07110631 -0.030440122 -0.012939911 0.01559802 -0.06847096 -0.06315936 0.013071479 0.009727548
-0.08804369 -0.023027249 0.0003062263 0.061230622 -0.037365142 0.06624784 -0.073552854 0.060939305
0.052413933 0.028511338 0.036907874 0.05822859 -0.030128188 -0.050713375 -0.06399003 -0.062445126
0.013652101 0.0574485 -0.032806557 -0.043622483 0.018885858 -0.036413908 0.055542715 0.08507491
-0.013760947 -0.08346596 -0.056904968 0.0070612207 0.040188394 0.054390036 0.055787124 0.04123036
0.039787732 -0.043112043 0.05608786 -0.024029993 0.045062594 0.08106469 0.002011709 0.061690204
-0.07296076 0.08033987 -0.07058313 0.033859685 -0.03253353 0.038514264 -0.012164369 0.052162163

fc1.bias f4 [128]
00000000: 5931 aa3d edda 8e3e cd74 2d3e f560 88bd
00000010: 38a3 723e cbe9 8d3e b5a2 243e 7482 033f
00000020: 7457 a1be 236c 9d3c 79fd 15bd 8a11 2d3d
00000030: c9b2 e5bd a992 53ba 7e9b 9a3d 53ae d63d
00000040: bb1c 943e c784 f0bd 56d6 bbbd 76a3 843e
00000050: be64 ce3e 3d2f 5e3e f9c3 e93d 049e 953d
00000060: ce85 573c 04e5 7b3e d366 d53d ace1 053e
00000070: f9ff 19bc b2c5 843e 930f 0bbd a36a 11be
00000080: b90a fabc cc43 8e3d 290f 243c bf6b 84be
00000090: c3a0 56bd 38e7 33be 42ae ac3e b7ec 983a
000000a0: 1ab6 b13d 0c89 1fbe f35f bc3e e295 ddbc
000000b0: 6d85 52be 1abd 62bc 7d4f 57be 70d3 003e
000000c0: 2627 97bd 8bea 0bbd db11 753e 8fa7 9c3d
000000d0: 39fb c23e 97c9 223d 8a2c 15be b0af 48be
000000e0: 8c03 fbbd 3c47 3bbe caa6 e13b e629 c9be
000000f0: 3dfe 8f3e c19a 933e e331 913e f5c7 90bd
00000100: 4be6 66be 79e4 0ebd 5b92 553e 92dc 943c
00000110: a984 53be 3aaf 033d 34f1 8bbc 5c25 473e
00000120: 9d0e 51be d0eb 773e db1f f0bd 7194 983c
00000130: c310 5e3e e0ad 39bd 3da4 b73e f945 823e
00000140: 1ec2 a1bc 76e0 9f3e 6474 7f3e c96a 5dbe
00000150: 9239 043e 84dd 9cbe 6443 8abd 4a16 98bd
00000160: 3aa0 56bd 9744 97bd d643 a3b8 491b a33e
00000170: c022 51b8 36aa d4bd d7b7 3d3e d40c 123e
00000180: 589a 9c3e 5215 7ebc 1a31 593e 94c9 b93c
00000190: 6c65 2b3c 66d5 c33d 46de 203d 0305 db3e
000001a0: 311e 51bd e061 713e e051 4a3e 8bdd 9ebd
000001b0: 02ae af3e 49fb 9c3a 198c 7abb 03a8 aebe
000001c0: f569 cc3d 0574 f03d 3a13 393c f564 363d
000001d0: 8d48 823e 2319 f5bd 5c3b a53e 3dbb 333e
000001e0: 47e9 c0bd 971b 713c 7698 03bc 0dff eb3e
000001f0: fa72 0fbe bd38 643d 83af a1bd b0dc 1b3e
0.083101936 0.27901402 0.16939087 -0.06659118 0.23695076 0.27717432 0.16077693 0.5137093
-0.31512034 0.019216603 -0.036618683 0.042253055 -0.11215741 -0.00080708653 0.07549189 0.104824685
0.2892817 -0.11744075 -0.09171741 0.2590596 0.40311235 0.21697707 0.11414332 0.0730553
0.01315446 0.24599081 0.10420003 0.13074368 -0.009399408 0.2593208 -0.0339504 -0.14200835
-0.030522691 0.06946525 0.01001338 -0.25863454 -0.052399408 -0.17568672 0.33726698 0.0011667226
0.08677311 -0.15579623 0.36791953 -0.027049009 -0.2055871 -0.013839031 -0.21026416 0.12580657
-0.07380514 -0.034159224 0.23932593 0.07649147 0.38082293 0.039743032 -0.14567772 -0.1959827
-0.12256536 -0.18288893 0.006886338 -0.39289778 0.28123656 0.28829005 0.28358373 -0.07069389
-0.22548787 -0.034885857 0.20856611 0.018171582 -0.20656075 0.03214953 -0.017082788 0.19447845
-0.20415731 0.24211049 -0.11724826 0.01862547 0.21686082 -0.045331836 0.3586749 0.2544401
-0.019745883 0.31225938 0.24946743 -0.21622767 0.12912586 -0.30637753 -0.06751135 -0.07426126
-0.052398898 -0.07386129 -7.785081e-05 0.31856754 -4.9861846e-05 -0.10384028 0.1852716 0.14262706
0.30586505 -0.015508013 0.21210137 0.022679128 0.010461193 0.09562187 0.039274476 0.4277726
-0.051054183 0.23572493 0.19757795 -0.077571 0.34312445 0.0011976744 -0.0038230477 -0.34112558
0.09981147 0.11740879 0.011296088 0.044529874 0.25445977 -0.11967685 0.3227185 0.17551894
-0.09419494 0.014716051 -0.008031955 0.46093026 -0.14008704 0.055718172 -0.07894804 0.15220904

fc2.weight f4 [128, 128]
00000000: 6f23 523c 5d6e 9bbd b4a3 a6bd 2f0e a43d
00000010: d496 82bd 8697 0abe da33 b93d 57f7 79bd
00000020: 4298 99bd 3f92 55bd 5acc 10be 0e8e 3c3b
00000030: 687f 7ebd 6908 8bbc 407d a4ba ab11 df3c
00000040: face a2bd e47b 84bd b1f5 9a3c 0e14 cabc
00000050: 5b0b 85bd 638e 7bbd a90b fe3b 1c52 88bd
00000060: b278 24bd c0b5 773b ee23 4bbd 51d8 afbd
00000070: 2199 6dbd fad0 07be 81cb 2abd 0cc7 37bd
00000080: fbc7 72bb b8a7 343d 9d2a 763d 1001 e0bd
00000090: fc07 57bc 71aa 3d3d b9e5 d53d 4d37 78bd
000000a0: c481 653d 98ab 54bd 7b26 943b c425 023d
000000b0: f8bc a23c eb02 94bd f1b6 873d 786b 53be
000000c0: 6b71 823d 471f 5abb aaa4 3cbd 00cc edbb
000000d0: 835a 17be e5f9 68bd 0fed 2ebc df38 1dbd
000000e0: 6ac7 933d 0606 e3bc c0e1 d0bd 1538 1b3d
000000f0: 24b3 31bd 0fc4 d4bd 8cf3 2c3b 8a3e 5abd
00000100: 2bc8 4bbe dc9e a1bc f158 043c 3c26 9dbd
00000110: 518b 053d 9b7a a8bd 6f67 973c e58d bdbd
00000120: 2515 ddbd eab0 68bd a533 cc3c e887 fbbd
00000130: 155e 88bd 81c2 07bd 48e4 01bc 1352 20bd
00000140: 30ba 42bd fe1a 03bd faf7 cd3c b44b eabd
00000150: ccd0 7b3c 349e 73bd ec5a be3c b61b 56bd
00000160: ea0c aebd 618a c0bd a6d8 8ebd a3cc 253c
00000170: bcf2 df3c 382d 15be ea85 f7bd 9c14 d3bc
00000180: 9c30 43be 4438 27be 7839 ea3d e3e3 f3bd
00000190: 8505 cbbb 63d4 b7bc 8597 f73c d908 b1bd
000001a0: 6dd5 99bd e670 f7bd d5a8 773c 880e 063b
000001b0: 284e 803c 644d b63d 9712 8bbd 3cf7 3fbc
000001c0: 0633 df3a 752b 94bd f749 2e3d 8bd9 ef3c
000001d0: 264d 70bd f2de c6bd b6e8 08be e0e7 dfbd
000001e0: 50e8 96b9 456a 4abd 93cf f43b 3081 03be
000001f0: e75d 24bd 8451 86b8 fbb7 09bd bc12 92bd
00000200: 3dca a23c dde9 e7bc d5d5 733d e1c1 52bd
00000210: 72ed a53a 2d28 9fbc feee 25bd e802 29bd
00000220: 0bed 2bbd c7d5 393b f579 343b 3ee6 133b
00000230: f0e9 ecbd 86fd 4dbd 45af 0cbd cf9a 6abd
00000240: 89a1 b33a c9de 933c c780 823b 9454 00bd
00000250: 8403 1bbd 6adb d93b 20ef a9bc b4bc 213d
00000260: fca8 babd e067 91bd 0750 ccbb 25e3 8fbd
00000270: 44e5 19bd e2b3 1fbd fc6d 3dbc cf59 4ebd
00000280: c781 35b9 15e0 abbd 779b 0bbb 21d9 8abd
00000290: 0008 c8bd 0f0a 8fbd 2fef 19bc 4f40 ae3b
000002a0: 6e7d f83c 3193 c73b 2bba 09bd 35cc 00bc
000002b0: 9b7b 67bd 6800 3bbc f579 f1bc 527e 5dbb
000002c0: 16a3 3d3d 95de 16bd 20a3 5bbd c8bb 443c
000002d0: c11e 253d adf3 11bd a0db 903d 6478 ab3d
000002e0: a769 c33c c992 eabd 1fc2 b6bc 4331 5ebb
000002f0: eeb4 39bc dc68 2abb 9941 abbd f9af 46bd
00000300: c9d2 8bbd b814 093d 4728 90bc 3e6b 93bd
00000310: 519a abbc e019 6bbd 4d97 44bc b1d3 b5bd
00000320: cced c6bd c7a7 313c 064b 033c 6162 1d3b
00000330: 894b 83bd a135 4d3b 0b25 2cbd 179e f3bc
00000340: 2900 40bd 4bdd a6bd 4f24 b8bc 20eb b33c
00000350: 0dee a13d bd21 f2bd ef21 7fbd 6714 29bc
00000360: df84 f53c 4870 05bd 8bc0 8abd 77d1 aa3d
00000370: 5633 eabc a9c9 8b3c 970a dcbd 77b0 b53b
00000380: 3b52 adba d22a 9cbd b3bd 853c f0f2 0f3d
00000390: 8c89 da3c 48ab a0bd 6ff8 69bd 121c a83c
000003a0: ae9c 4bbd 52ed edbd f5e4 64bd dea7 a5bc
000003b0: 020d 9a3c 88ca 83bd 6c38 91bd 5866 8cbd
000003c0: bc96 1c3d 0370 b13c a05c 00bd 9889 b73a
000003d0: c062 75bc 3d3a 1dbd aba8 a63d a9a2 18bd
000003e0: 6221 2f3d 0fb6 55bd d4a7 823c 0e07 30bc
000003f0: 07af e1bd 283d 86bb 097e 1a3b 3a43 8abc
0.012825831 -0.075894095 -0.08136693 0.08010518 -0.063764244 -0.13534364 0.09043093 -0.061026897
-0.07499744 -0.052141424 -0.14140454 0.0028771195 -0.062133223 -0.016971784 -0.0012549534 0.027230104
-0.07949634 -0.06468943 0.018915983 -0.024667766 -0.064963065 -0.061415087 0.007752855 -0.06656286
-0.040154167 0.003779754 -0.049594812 -0.08586181 -0.058007363 -0.13263312 -0.041697983 -0.04486756
-0.0037045467 0.04410526 0.060099233 -0.10937703 -0.013124462 0.046305124 0.10444207 -0.060599614
0.056031957 -0.051921457 0.004521189 0.031774297 0.019865498 -0.07227119 0.0662669 -0.20646465
0.06369289 -0.0033282803 -0.046055473 -0.0072569847 -0.14780621 -0.056878943 -0.010676636 -0.038384315
0.072157696 -0.027712833 -0.101993084 0.03789528 -0.043383732 -0.10388958 0.0026390282 -0.0532823
-0.19900577 -0.01972907 0.008077846 -0.07673308 0.032603566 -0.0822651 0.018481938 -0.0925558
-0.107950486 -0.056809343 0.02492697 -0.122817814 -0.0665857 -0.033144478 -0.007927962 -0.039140772
-0.047540843 -0.032008164 0.025142659 -0.114402205 0.015369605 -0.059477046 0.023236714 -0.05227252
-0.08498557 -0.09401394 -0.06974916 0.01011959 0.027337424 -0.14568031 -0.12086089 -0.025766663
-0.19061512 -0.16330057 0.114367425 -0.119087 -0.0061957263 -0.022440141 0.030223617 -0.08644266
-0.07511411 -0.120820805 0.015115936 0.0020455439 0.015662268 0.0890148 -0.06790655 -0.01171666
0.0017028756 -0.07234851 0.042551007 0.029278537 -0.058667324 -0.09710492 -0.13370022 -0.109328985
-0.00028783316 -0.049417753 0.007471034 -0.1284225 -0.040128615 -6.4048014e-05 -0.033622723 -0.071324795
0.019871825 -0.028309757 0.059530098 -0.05145443 0.0012659265 -0.019428337 -0.040511124 -0.041262537
-0.04197411 0.002835618 0.0027538512 0.0022567655 -0.115680575 -0.050290607 -0.034346838 -0.057276543
0.0013704757 0.018050568 0.0039826366 -0.03133066 -0.03784515 0.0066484706 -0.020743906 0.039486602
-0.091142625 -0.07099891 -0.006235126 -0.07025746 -0.03757216 -0.03898991 -0.011561867 -0.050378617
-0.00017309851 -0.0839235 -0.002130238 -0.06779695 -0.09767151 -0.069843404 -0.009395405 0.005317725
0.030333247 0.0060905446 -0.03362481 -0.007861187 -0.056514364 -0.011413671 -0.029477099 -0.0033797217
0.04629811 -0.036833365 -0.053622365 0.012007661 0.040312532 -0.035632778 0.0707314 0.08372572
0.02385409 -0.11453778 -0.022309361 -0.0033903874 -0.011334641 -0.0026002442 -0.08362121 -0.048507664
-0.068273135 0.033467025 -0.01759733 -0.07198189 -0.020947607 -0.057397723 -0.011998964 -0.088782676
-0.09713325 0.010843224 0.008013492 0.0024014937 -0.064108916 0.0031312483 -0.042027514 -0.029738469
-0.046875153 -0.08147677 -0.02247825 0.021962702 0.07906733 -0.11822841 -0.06228822 -0.010319806
0.029970584 -0.032577783 -0.06775006 0.083407335 -0.028588932 0.017063932 -0.10744207 0.005544718
-0.0013223359 -0.07625355 0.016325807 0.035143793 0.026676916 -0.07845169 -0.05712169 0.020521197
-0.04970997 -0.11617531 -0.055882413 -0.020221647 0.01880503 -0.06435114 -0.0709084 -0.06855458
0.03822969 0.021659857 -0.031338334 0.0014002798 -0.014977157 -0.03838562 0.081376396 -0.0372645
0.042756446 -0.052175578 0.015949167 -0.0107438695 -0.11019712 -0.004096646 0.0023573658 -0.01687776

fc2.bias f4 [128]
00000000: 0e3f 503d b02a d23e dd5b d63d 50c0 43bd
00000010: ad33 60bc 9200 59be b2e6 18bd 54a7 3fbe
00000020: 4f4e 13be c636 93bd 8cfd e33d dd5a 58bd
00000030: 1f12 2abe 818f bb3a 6166 24bd 67ae 193e
00000040: d7fa 11be 40e9 9fbc fd8d 0dbe 6792 63bd
00000050: 3fb2 d7bc ab98 16be a53b 5ebd 6799 3abe
00000060: c37a 623e 9e6b 21be b137 383f 8ca7 1a3d
00000070: 5930 11be ddfd ba3e 9919 c6bd f79f 2cbe
00000080: ec4e 07bd 4e5d dabd 6f81 753c b8b9 20be
00000090: 9405 4fbe 9631 b4bd 24fa 173e 0fa9 7dbd
000000a0: 245c 15be c6de 2cbd 829d 9b3c 67f6 36be
000000b0: 50f5 a4bd e1a4 743a 88d8 3f3e 0d28 113f
000000c0: 1493 073e 8cd3 6dbd f7eb f23e f220 55bb
000000d0: 1b62 bf3d 5b6c de3b af7f f9bc 4bae ea3e
000000e0: 1b1b b03d 7e39 78bc 74a5 313f 6205 11be
000000f0: fcc0 0c3e 8ea3 8e3e a1dd 34be f684 073f
00000100: 4e51 073f 667f adbb ca67 16bd 94e9 eb3e
00000110: 6c10 773e fb1a bb3e e608 94bb ba8d f3bd
00000120: 257c 79bd a469 3f3e e967 66bd 620f 1e3f
00000130: 9eee e23e edc6 9abd 1caf a73c 31e9 5c3e
00000140: 4992 073e bd8d e23e 2dc1 043d 6578 263f
00000150: e352 8b3d d5ae 1d3f 794d f23e 1db7 883e
00000160: 7287 40bd 78ef e8bb f28f 573f 5b1a 76bd
00000170: 36ab 2cbe eadd aabd 45ed f9bc 41e7 0fbe
00000180: 1223 e9bd dffa 2abe f8ff 61bb f970 71bd
00000190: 768b a5bd b7cb cebd ad15 013e 89a6 e6bd
000001a0: b35f 003d 59c9 6ebe f036 09be 5fae 1fbd
000001b0: b1f5 f7bc 7045 aa3a 9931 333f cd75 0dbd
000001c0: 4f1f cd3e 4801 b13c 0fb1 1dbd 3621 15bd
000001d0: 0056 ccbd 0566 933e 674e b9bd f278 073f
000001e0: b69a 893d 082a 063f f0f5 9bbd a97a e03b
000001f0: df76 8bb9 b2ee e43e 3948 05be 15e6 823d
0.050841384 0.41048193 0.1046674 -0.047790825 -0.0136841955 -0.21191624 -0.037329383 -0.18716174
-0.14385341 -0.071881816 0.111323446 -0.05282103 -0.16608475 0.0014309735 -0.0401367 0.15007935
-0.14255844 -0.019520402 -0.13823695 -0.055559542 -0.026330112 -0.14706676 -0.0542561 -0.18222581
0.22117142 -0.15763709 0.7195998 0.03775744 -0.141786 0.36521807 -0.09672851 -0.16857897
-0.03303425 -0.10662328 0.014984473 -0.15695846 -0.20216972 -0.0879852 0.14841515 -0.061928805
-0.1458593 -0.04220464 0.018996004 -0.17867433 -0.08054602 0.000933243 0.18734944 0.5670174
0.132397 -0.058063075 0.47445652 -0.0032520858 0.09344884 0.0067878193 -0.030456392 0.458361
0.0859892 -0.015150426 0.69393086 -0.1416221 0.13745493 0.27859157 -0.1766267 0.5293726
0.52858436 -0.005294728 -0.036720075 0.46076643 0.24127358 0.36544022 -0.0045176623 -0.118922666
-0.06090941 0.18692642 -0.05625144 0.6174222 0.44322675 -0.07557473 0.02046924 0.2157333
0.13239397 0.44248763 0.03241079 0.6502746 0.06802919 0.615949 0.47324732 0.26702204
-0.04700417 -0.007108625 0.8420402 -0.06008373 -0.16862187 -0.08343108 -0.030508647 -0.1405306
-0.11383642 -0.16697262 -0.0034484845 -0.05894563 -0.08083241 -0.10097449 0.12605925 -0.11262233
0.031341266 -0.23318996 -0.13399863 -0.038984653 -0.030268522 0.0012990665 0.69997555 -0.03453617
0.4006295 0.021607056 -0.038498934 -0.036408626 -0.09977341 0.28788772 -0.09048157 0.5291892
0.06718962 0.52407885 -0.07615268 0.0068505597 -0.00026600712 0.4471336 -0.13015832 0.06391541

fc3.weight f4 [10, 128]
00000000: af5b ad3c 6f22 893d 06c4 13ba 7b0e 29bd
00000010: 76ef 693d b598 383d abb2 2bbc c7fb c2bd
00000020: be63 55bd a3d1 8ebc bb67 f03c df48 e83c
00000030: e3d5 02bc a702 6fbd ee68 d4bc 8603 083e
00000040: ab93 e6bc 2d10 733d 0688 dbbc 1f22 eb3c
00000050: 0c44 f7ba e0e8 27bd 687d 02bd 6b20 833c
00000060: 8023 9c3d a2c6 e1ba 35d7 833d 811f 5bbd
00000070: 98bc e53c bfca 153e 9f33 313d 7217 edbc
00000080: 6bfe 37bc 12fe 093b 6752 243b 0f53 91bd
00000090: 7f75 9cbc 19c2 403d 1df0 edbb dc37 c4bc
000000a0: 4682 86ba af23 043b 59af 75bc 7730 313d
000000b0: 15a0 5ebc d897 74bd 0aa8 afbc a6bd 4f3d
000000c0: 4a64 153d 3f16 3dbc b5aa 643d 7581 2e3c
000000d0: 8cd5 be3c ef49 a33d 6d0b 003d 617f 7d37
000000e0: 18e0 2c3d 50dd 1f3d 39e1 7b3d 3215 84bc
000000f0: f23a a83d ff81 d63d 9ea5 8ebd fcde 433d
00000100: 1d6d 8e3d 9246 433a 66d8 21bd b176 833d
00000110: ebb0 33bc ccea 7b3d dbaa 993d d690 92bd
00000120: 62cc bf3c 2678 8e3d 61c0 993c 058d b13d
00000130: 8043 403d b52b 8f3d e1e9 18ba d688 a33b
00000140: afc5 30bd fd26 f8bb 047b b0bc 415c f43c
00000150: 57ae 9fbc 496c 3d3d a594 603d c3f9 8e3d
00000160: e7ad 8f3c bcea 2b3c 1e62 ca3d 7b4d a3bb
00000170: 7a87 c83c 8a1c 2a3d 1334 97bd 398f cbbd
00000180: bb10 2d3d a13c fc3a d1b9 803e e404 b9bb
00000190: 8d63 15bd b2cd 103d 31d8 9c3d 5759 40bb
000001a0: 4da8 81bd dc01 3a3b 1537 8e3c 3ee6 733d
000001b0: 71d8 7f3b e2b1 2a3d 8c32 593d 88fc 663d
000001c0: a73e b6ba 199b cabb e57f 063b 09b8 a33d
000001d0: 13f7 31bc 5bb5 abbc 2113 a33d 838c a23c
000001e0: dffc d0bc 51bd 673d 112a 763d 9996 c43c
000001f0: ae13 0e3d 8c1e 923c b13b b23c edfc 4abc
00000200: e106 b23c 1960 d9bd 2d03 863c 2aa2 50bc
00000210: 005a fbba 7687 fdbc 1f36 4a3c 4c7e 29bd
00000220: c2b5 8b3c 4f28 a33d 6a96 31bc 62e9 a0bd
00000230: 893a e2bb 9088 4b3c 911c 19bd ae6b 12bd
00000240: 6b28 ee3c 1022 75bc e6b0 093d 14ca 7fbc
00000250: 685c 003c 9f22 39bd d2b8 963d 83b1 71bd
00000260: 753d 1ebd f291 253d d2df c03c 03b3 f139
00000270: 007e 403c dca8 1d3d 5fe4 7dbd 081e 19bc
00000280: 7119 aebd 134e 3cbb b47e 853b b417 1ebc
00000290: dc78 4abd 0b89 933d 50a6 073c 8595 0abd
000002a0: cb95 61bc 3fc9 453d c038 363d 7032 513d
000002b0: 18af 1dbd 1307 44bd ce47 d03c 4184 563d
000002c0: 9fae 43bb 8a4a a73c 387a 673d 2f34 793c
000002d0: 05c9 0f3c ef07 89bd dbcb 88bc 6587 cd3c
000002e0: 9ff3 253b 8aa0 333d f82d 7d3d 7a79 7fbc
000002f0: a0f3 c6bb 4068 efbd 6c9a 6dbd 2bdf 353d
00000300: 2129 203d 55ef 33bc 4a6e 8c3d 7703 413d
00000310: 0f65 e0bb b404 753d c093 ba3a 522c b8bd
00000320: 8c43 0dbd 4209 793a 6617 983c 043c b03d
00000330: b114 9b3c 0043 e53b 631b e73c e1c2 2e3b
00000340: e5ea ca3c 4000 dabb 9923 22bd 08de ec3c
00000350: 9eef d33c 90b8 363d 58d8 813d 8c26 5c3d
00000360: b4f7 3d3b cee4 c93c f303 ca3d 09b9 203c
00000370: 8cb6 a3bc 6d4d 5c3d d61e 19bc bb4f cabd
00000380: 95d5 8bbc 1269 6d3d 0d8b 86bd 3316 14bc
00000390: 9c71 54bc d93a 573d e440 bdbc f66a 753c
000003a0: 20d5 b33b 8009 34bb debc 113b e755 993d
000003b0: abbc a93b d831 043c af89 4a3d 7238 d93c
000003c0: a9a7 093d 6609 923d c6e0 c43c 894b 57bd
000003d0: 7477 583d 51a9 0e3b 3054 883c be99 db3b
000003e0: f2b5 4a3c d774 a13c dd16 453d 8d4b 963c
000003f0: b56a 3a3d b372 c73c 260f bc3c 0697 84bb
0.021161882 0.06696021 -0.0005636815 -0.041273575 0.057113133 0.045067508 -0.0104796095 -0.09520679
-0.052097075 -0.017433947 0.029346338 0.02835506 -0.007985565 -0.05835214 -0.02592894 0.13282594
-0.028146585 0.0593416 -0.02679826 0.028702794 -0.0018864884 -0.04099357 -0.031857878 0.016006669
0.076239586 -0.0017225335 0.06437532 -0.05349684 0.02804403 0.14628123 0.04326212 -0.028941844
-0.011230092 0.0021055979 0.002507353 -0.0709592 -0.019098995 0.047060106 -0.0072612897 -0.023952417
-0.0010262213 0.002016287 -0.014995419 0.04325911 -0.013587971 -0.059715122 -0.021442432 0.050717972
0.036472596 -0.011540948 0.05582686 0.010650982 0.023295186 0.07973086 0.031260896 1.5109633e-05
0.0422059 0.03902942 0.061494086 -0.016123388 0.08214368 0.104740135 -0.06965183 0.047820076
0.069544055 0.00074491755 -0.039513014 0.06419123 -0.0109674735 0.061503217 0.07503291 -0.071565315
0.023412887 0.0695651 0.018768491 0.086694755 0.046939373 0.06990758 -0.00058331905 0.0049906773
-0.043157276 -0.007573007 -0.021543033 0.029829146 -0.019492311 0.046245847 0.05482926 0.06981232
0.017538978 0.010492977 0.098819956 -0.0049836016 0.024478663 0.041531123 -0.07382979 -0.09939427
0.042252284 0.0019244143 0.25141767 -0.005646335 -0.036471892 0.035352416 0.07658423 -0.0029350126
-0.06330929 0.0028382456 0.01736025 0.059545748 0.0039038921 0.04167355 0.05302672 0.056393176
-0.001390417 -0.00618304 0.0020523008 0.07994086 -0.01086213 -0.0209605 0.07962633 0.019842392
-0.025511203 0.05657703 0.06009871 0.023997592 0.034686737 0.017836832 0.021756979 -0.012389404
0.021731796 -0.10614032 0.016358936 -0.012733975 -0.0019176602 -0.030948382 0.012342005 -0.04138021
0.017054442 0.07966673 -0.010839084 -0.07857014 -0.0069039506 0.012422696 -0.03738076 -0.035747223
0.029072007 -0.014961734 0.03361597 -0.015612144 0.007834531 -0.045199033 0.073594704 -0.05900718
-0.03863283 0.040422387 0.023544226 0.00046100476 0.011748791 0.038491115 -0.06198537 -0.009345539
-0.08500946 -0.002873306 0.004073942 -0.009649206 -0.049431667 0.07203873 0.008279398 -0.033834
-0.013768624 0.048287626 0.044487715 0.05107349 -0.03849706 -0.04785831 0.025424864 0.05237222
-0.002985872 0.020421285 0.05651304 0.015210195 0.008775954 -0.06690966 -0.016698768 0.025088975
0.0025322211 0.043854274 0.061811417 -0.015592927 -0.006071523 -0.11689806 -0.058008596 0.044402283
0.039101724 -0.010982354 0.068569735 0.047122445 -0.0068479846 0.05981894 0.0014234707 -0.089928284
-0.034488246 0.0009499976 0.018565845 0.08605197 0.018930765 0.0069965124 0.028211301 0.002666645
0.02477021 -0.006652862 -0.03958473 0.028914467 0.025871094 0.044609606 0.063400924 0.0537477
0.0028986754 0.024645235 0.098640345 0.009809741 -0.019984506 0.053784776 -0.009345731 -0.09878489
-0.017069617 0.05796153 -0.065694906 -0.009038496 -0.01296654 0.052546356 -0.023102231 0.014979115
0.005488053 -0.0027471483 0.0022237818 0.07487088 0.0051799617 0.008068524 0.04944771 0.026516173
0.03360716 0.07130699 0.024032962 -0.05256227 0.052848294 0.00217684 0.016641706 0.006701677
0.012372481 0.019709034 0.048117507 0.018346572 0.04551192 0.024346685 0.022956442 -0.0040463237

fc3.bias f4 [10]
00000000: 8b6b 273f 9415 133f 28bc ad3e 7695 db3e
00000010: 48e0 243f 1e5f 2e3f e0ac e53e e2e1 013f
00000020: 9e52 c53e 49e2 183f
0.6539847 0.574548 0.33932614 0.42887467 0.64404726 0.6811389 0.44858456 0.50735295
0.38539594 0.59720284
