Q_Layered_Network/dqn_node_model.onnx (onnx, 127445 bytes, 6 tensors)

dense1.weight f4 [128, 128]
00000000: 3cf3 81bd 496b 6bbd 3076 f9bb 385e 54bc
00000010: 0ec8 9ebd 0331 2abd fa35 633d 7379 9cbd
00000020: 40d2 cabb 80c0 f8ba f08b 0abc f0a8 c13c
00000030: 3705 953d 42a1 3f3d fcf7 bc3c 4057 0abb
00000040: 7474 96bd d866 643c c425 c6bc d43d b4bd
00000050: a1d9 a6bd e056 5a3c bccc b8bc efd7 ac3d
00000060: 6f8d a23d a22e 763d 3693 593d 682b 583c
00000070: dffb 1cbd b11a 9c3d e030 62bc 10c4 56bc
00000080: fc83 9c3c ca99 9bbd d098 a23b 5699 243d
00000090: 1093 ac3c 009b e7bb 2cf6 aa3c 045d bfbc
000000a0: 5a92 203d b05a 87bc 160c 2d3d 862b 273d
000000b0: 3e1a 99bd d08b a4bc 40ff b43c 4259 523d
000000c0: b804 3f3c 4199 853d 7611 debc cd18 a73d
000000d0: d2cf b0bd 20c3 afbb 769b 97bd 9a37 1c3d
000000e0: a06c 283c a4fc e2bc fa6c 413d 10ee abbc
000000f0: b8f3 863c 4eb6 36bd d782 923d 80db 423a
00000100: 62a1 84bd 9b38 8dbd c565 24bd 3ac8 a2bd
00000110: 8479 a33c 9794 af3d dba7 803d 49d8 833d
00000120: 037c a53d f47c 45bd f9e6 52bd 50d3 44bd
00000130: 6040 df3b 9474 b5bc 3fe3 803d 7c07 77bd
00000140: 3ac7 253d f527 963d 5c9a afbc e24b 84bd
00000150: e121 8a3d 78ef 793c e8f0 5cbc 27c7 9f3d
00000160: 00b8 7cbb df89 64bd 965f 5a3d 8ad0 9fbd
00000170: 0ae3 603d 397f 61bd 96bc b3bd 7e9b 77bd
00000180: 52f5 79bd 3cc7 d43c 306b 90bc 0015 2bba
00000190: 4060 833c 9d8e b1bd db30 4cbd b4fd 92bd
000001a0: ccb7 833c 81f2 b43d 66b0 433d 09e9 39bd
000001b0: 049c b23c 18ad 4dbd fbf9 af3d 2765 13bd
000001c0: a8bb 35bc 32d8 1d3d 98e3 6bbd febc 97bd
000001d0: cffc b13d fd7a 2dbd 8693 5abd 52f1 5bbd
000001e0: 5468 01bd 25ca 903d a087 b13c 5680 5f3d
000001f0: 7086 e7bc 2c7b aabd 75d6 32bd 80c8 85bd
00000200: 8061 a73c 30c6 823c 53e3 963d 28a2 9f3c
00000210: 42f2 673d e0ec 73bd ef75 8d3d f84a e8bc
00000220: 4afa 243d ef56 21bd aee7 063d b400 7bbd
00000230: 2c64 d5bc 168d 443d b6cd 90bd 41fb 48bd
00000240: 48f6 4f3c 9564 7dbd ce1c 5b3d 2335 ac3d
00000250: 5614 7d3d a49d 37bd a5af 8dbd c12c 9abd
00000260: 38ba 0b3c 505b 7dbc 2145 8a3d efa4 873d
00000270: 84ec 87bd e0da ce3c 7637 5a3d ff93 843d
00000280: 9992 833d 88a1 333c da4c 643d 0965 a63d
00000290: aa7e 793d b03c 713c 30fa 063c df34 5abd
000002a0: 8064 af3c f6a5 2e3d 4b53 07bd 03f1 0bbd
000002b0: 787d 093c e857 a3bd 60d9 1f3c 60e2 3dbc
000002c0: ead2 2bbd 20e9 e63c cc71 e93c ade4 b1bd
000002d0: 554b 13bd 2acc 343d ec44 fb3c 6909 81bd
000002e0: bdf4 813d f00b 063d 154b 27bd 461e fdbc
000002f0: 901e b3bc 5b79 5fbd c010 45bc a008 5cbc
00000300: 9089 3abc 380f 4ebc fddb ac3d 6ce6 f9bc
00000310: 2ac1 623d 3457 823c 5cfd cfbc a123 803d
00000320: c466 17bd bcbd eb3c d8fa 503c ca47 453d
00000330: 38dc b6bc e44f 073d 20a3 9dbb 602e 883b
00000340: e692 113d 2681 a3bd 20ff c3bb 3224 063d
00000350: 3830 94bc bb3d 97bd d156 933d 78bc 4c3c
00000360: 6a53 6c3d 94ef 93bc b8b4 c43c 3cdd 55bd
00000370: b2d9 7bbd 8a2d 5a3d eb3d 8c3d f5f3 a4bd
00000380: b80c 8dbd 0b8f 44bd 80ab 41ba 5ae4 643d
00000390: 18ad 6e3c 640a b4bd 628e 443d a09a 073d
000003a0: aab2 2a3d 8e07 673d 467e 7d3d 2eb0 193d
000003b0: e43c 52bd 24aa a13c d3ad 903d b0f2 333c
000003c0: 9565 9abd 7a53 febc 2bbd 993d 4524 b23d
000003d0: eb99 4ebd 71c6 aa3d f06d 8fbb ca62 123d
000003e0: f4f5 8e3c ebd9 ab3d c6cf 583d d81a cfbc
000003f0: 0824 913c 9da0 4ebd 0e60 e3bc f075 033d
-0.063452214 -0.057475362 -0.007612966 -0.012961917 -0.07753001 -0.041550647 0.055471398 -0.07640352
-0.0061896145 -0.0018978268 -0.008456215 0.023640126 0.07276385 0.046784647 0.023067467 -0.0021109134
-0.073464304 0.0139405355 -0.02418793 -0.08800855 -0.08146978 0.013326377 -0.022558562 0.084396236
0.079371326 0.060103066 0.053118907 0.013193943 -0.03832614 0.076222785 -0.013805598 -0.013108268
0.019105904 -0.07597692 0.0049620643 0.040185295 0.021066219 -0.007068038 0.020869337 -0.023359783
0.03920207 -0.016522735 0.042247854 0.04081299 -0.074757084 -0.020086199 0.022094369 0.051354654
0.01165884 0.065233715 -0.027107935 0.08159027 -0.086333886 -0.005363837 -0.07402699 0.038138963
0.0102798045 -0.027708359 0.04722307 -0.02098754 0.016473636 -0.044607453 0.07153862 0.0007433221
-0.06476094 -0.06895562 -0.040136117 -0.079483464 0.019955404 0.08573263 0.06282016 0.064377375
0.08080294 -0.048214868 -0.051489804 -0.048053086 0.006813094 -0.022150315 0.06293344 -0.060309872
0.0404732 0.0733184 -0.021435909 -0.06459786 0.06744743 0.015254848 -0.013485171 0.07801657
-0.003856182 -0.055795547 0.053313814 -0.078034475 0.05490402 -0.05505297 -0.08776204 -0.060451023
-0.06102497 0.025973909 -0.017629236 -0.00065262616 0.016037107 -0.086697794 -0.04985128 -0.07177296
0.016078852 0.088353164 0.04777565 -0.045388255 0.02180291 -0.050213903 0.08592602 -0.03598514
-0.011092104 0.038536258 -0.057590097 -0.07409094 0.086907975 -0.04235362 -0.053363346 -0.053696938
-0.031593636 0.07069806 0.021671116 0.05456575 -0.028262347 -0.083242744 -0.043661553 -0.06532383
0.020432234 0.015963644 0.073675774 0.019486502 0.05662752 -0.059552073 0.0690726 -0.02835606
0.040277757 -0.039389547 0.03293579 -0.061279967 -0.026048742 0.047986113 -0.07070486 -0.04906774
0.012692995 -0.0618635 0.053494267 0.084085725 0.061786972 -0.044828072 -0.06918267 -0.075280674
0.008528285 -0.015463665 0.067514665 0.066232555 -0.06636909 0.025250852 0.053275548 0.064735405
0.06424446 0.010963805 0.055737354 0.0812474 0.060911812 0.014723942 0.00823836 -0.053273078
0.021410227 0.04263874 -0.03303842 -0.034165394 0.0083917305 -0.07975751 0.009756416 -0.011589617
-0.04194919 0.028187335 0.028496645 -0.086861946 -0.035960514 0.04414002 0.030672513 -0.06300623
0.06345508 0.03272623 -0.04084309 -0.030898225 -0.02186516 -0.054559093 -0.012027919 -0.013429791
-0.0113853365 -0.012576871 0.08440397 -0.030505382 0.055359997 0.015910722 -0.025389366 0.06256796
-0.03696324 0.028776996 0.012755118 0.048164167 -0.022321805 0.033035174 -0.004810706 0.004155919
0.035540484 -0.079836175 -0.005981341 0.032749362 -0.018089399 -0.07384821 0.07194293 0.012496106
0.057696737 -0.018058576 0.024011955 -0.05221294 -0.061486907 0.053266086 0.068477474 -0.080543436
-0.068871915 -0.04798798 -0.0007387921 0.055881836 0.014567636 -0.08791044 0.04798735 0.033106446
0.041674294 0.05640369 0.061888 0.037521534 -0.0513276 0.01973445 0.07064404 0.010983154
-0.075389065 -0.031045664 0.07506784 0.08698324 -0.050439756 0.08338631 -0.0043771192 0.035738744
0.017451264 0.08391174 0.052932523 -0.025281355 0.017717376 -0.05044614 -0.027755763 0.032094896

dense1.bias f4 [128]
00000000: 704c 7b3c 03fe 14bd 1d63 873d ac1d ce3c
00000010: 60a9 153c 843b 9fbc a88b cabc accb d73c
00000020: c491 1bbd 2665 6f3d 8ae5 183d 7a00 84bd
00000030: a9d2 6ebd 40c7 81bd b954 833d f513 883d
00000040: 4d97 813d 6045 0dbb 7649 6c3d 67d9 a13d
00000050: f095 283c 345e dd3c a066 213c 9664 5f3d
00000060: 08e7 0a3d fdf5 a83d 3bc5 2cbd f49e 81bc
00000070: b1a9 a33d f07e 5fbd 88db 7dbc 6047 a0bc
00000080: c08f 97ba 1392 69bd 5ebb 543d 7930 08bd
00000090: 14c2 b93c 74d7 f7bc 1a43 2b3d 8788 b03d
000000a0: 20c1 8bbc 7025 153c 21dc 18bd 8aa9 fbbc
000000b0: f48e 0c3d f91b a53d 5ca8 a3bd 28ec a6bd
000000c0: 0a83 9bbd 1802 f83c 8ec3 53bd ef76 57bd
000000d0: 1cfb 86bd 46ae 283d 9c86 083d 8019 12bb
000000e0: 3885 19bc ac55 8a3c 3c8e 68bd d125 9e3d
000000f0: 2994 87bd 1969 913d 80cc 1cbb a15f a53d
00000100: a8cf da3c 8e9b 2ebd 00a2 32ba e108 803d
00000110: 3010 433c 57f2 9c3d 701a 8b3b 3c0d a2bd
00000120: 6bf9 8d3d fd34 b23d a83c 873c f077 1abc
00000130: 393d a73d 6c63 a5bd 40a1 edbb 006e 463b
00000140: 0ac9 473d 5059 d83b 70cd fc3c 588c 3ebc
00000150: 589a 7f3c 7d36 10bd a898 fe3c 9427 aebd
00000160: ed59 99bd 00ed 5f3c 8871 62bc 3d5b 70bd
00000170: 6a19 4c3d 3967 38bd fcdc d4bc 6e67 463d
00000180: 49bf 803d 0849 9d3c ee5e 673d dcdf aa3c
00000190: dedc 233d a093 0cbc 21cb 9b3d 60b6 02bb
000001a0: c73a 24bd 1f4f 903d 9ba4 8b3d 0e6f 80bd
000001b0: e0cf a63c 00c7 efb9 9c9b 52bd 06af 93bd
000001c0: 28a1 093c 9a9e 3e3d 752b 813d 5748 a73d
000001d0: 4ed8 353d b8c1 dd3c 661b 563d 0256 2c3d
000001e0: a430 25bd 4e82 95bd d94c a83d 9032 df3b
000001f0: a051 48bc 3089 97bc 4652 a1bd a261 0c3d
0.015338048 -0.036375057 0.06610701 0.025160633 0.00913462 -0.019437559 -0.024724796 0.026342236
-0.03798081 0.058446072 0.03732828 -0.064454034 -0.05830637 -0.06336832 0.06412644 0.066444315
0.063276865 -0.0021556243 0.057687245 0.07902794 0.010289654 0.027022459 0.009851128 0.054539286
0.033911735 0.082500435 -0.04218028 -0.015822865 0.079913504 -0.054564416 -0.015494235 -0.019565284
-0.0011563227 -0.057024073 0.0519365 -0.033249352 0.022675551 -0.030254103 0.04181204 0.086197905
-0.017059863 0.009103164 -0.037319306 -0.030720491 0.03431602 0.08061976 -0.079910964 -0.08150512
-0.07593353 0.030274436 -0.051700167 -0.05260366 -0.06590864 0.041181825 0.0333315 -0.0022293031
-0.009370141 0.016886555 -0.05677627 0.07722057 -0.06620056 0.07100124 -0.0023925602 0.080748804
0.026710346 -0.042628817 -0.0006814301 0.062516935 0.011905715 0.0766341 0.004245095 -0.079126805
0.06932338 0.08701513 0.016508415 -0.009428009 0.08165974 -0.08075604 -0.0072518885 0.0030277967
0.04877571 0.0066024438 0.030859679 -0.01163014 0.015600763 -0.035208214 0.031078652 -0.08503643
-0.07487855 0.013667345 -0.013821013 -0.05868076 0.049828924 -0.045020316 -0.02598428 0.048438482
0.06286485 0.019199863 0.056487016 0.020858698 0.040005557 -0.008580118 0.07607103 -0.001994513
-0.040095117 0.07046341 0.068185054 -0.06271182 0.020362794 -0.000457339 -0.051417932 -0.072111174
0.008400239 0.046537973 0.06307117 0.081680946 0.044395737 0.027069911 0.052272223 0.04207421
-0.04032959 -0.07300244 0.082177825 0.0068114474 -0.012226492 -0.018498033 -0.078770205 0.034272797

dense2.weight f4 [64, 128]
00000000: 7009 2abd e01e 8a3b 621b 773d 1eb6 443d
00000010: 065b 343d 08b7 373c 0030 54b9 7825 5ebc
00000020: ae4f 1f3d 53e1 4cbd 580d d4bc cb29 07bd
00000030: dcd5 96bd f060 8c3c e37b 9d3d f08a 3dbc
00000040: 793b 68bd ef8a a0bd 04fc b0bd c84b 07bc
00000050: 7782 823d 04b9 a03c 18cb 8abc c9ca 39bd
00000060: fc13 d2bc 455e ac3d 80cd babc 3bec 893d
00000070: eade 243d c0ec 76bd 939f 833d a6d6 6c3d
00000080: 2cf2 d63c 8a92 423d 25b9 923d 989b bc3c
00000090: e786 a5bd ae0e 343d 2488 8dbd b8ef 863c
000000a0: e0e9 0e3b 6020 893c e645 71bd 7b33 a83d
000000b0: 621a 543d 1222 acbd 30cd bdbb 0013 8f3a
000000c0: da7a 71bd 978f 913d 7ada 76bd a0c5 fcbb
000000d0: 529e b1bd e5f7 33bd e7e5 56bd 45fc 803d
000000e0: ebe1 40bd a844 7b3c a8df 8cbc 30f4 20bc
000000f0: 624d 783d ea2e 733d f410 4bbd e075 0f3c
00000100: 70ed 9abd e24b 5c3d 00c5 6bba f0fb cd3c
00000110: f61f 733d b808 ddbc b8b1 a63c 7e6c 1b3d
00000120: d9a9 44bd 6d7f 813d 70b7 5e3c ec65 31bd
00000130: f3cd 963d 1456 9a3c 50df ed3c 5e1b 4b3d
00000140: 2835 31bc 30aa d3bc 0f25 00bd 8cf7 afbd
00000150: f194 2bbd b0bf 4e3c 9284 293d 58d5 89bd
00000160: 9e8e 8cbd 7874 60bc 611e acbd eacc 9ebd
00000170: 6791 8b3d ca0a 5c3d cdcf 843d 300e 50bd
00000180: ec70 a63c 6722 33bd 88f6 60bd f6ee 283d
00000190: d37d af3d 00a1 d539 c803 f43c d833 fc3c
000001a0: 39db aebd f03d 04bc 1e7d 593d 78fe 4abd
000001b0: 70aa 24bc 80f8 1b3c 5000 bebc 8d13 a1bd
000001c0: 4bf0 33bd 21ea a4bd e04f 03bb 6022 b5bc
000001d0: f677 6b3d e7fb 3cbd b850 ecbc 6e8e 3c3d
000001e0: fa62 693d c9c9 ab3d fa61 86bd 5ea1 103d
000001f0: fdea 2fbd 94a2 093d e593 973d 9443 3cbd
00000200: 7eac 6e3d e074 5dbc fab7 a3bd bec0 a7bd
00000210: 3298 733d 4cb8 b0bc e516 8f3d 8a43 0dbd
00000220: 753c 8dbd 663a 2d3d d84c 7cbc 4d63 903d
00000230: 54e6 6ebd 98f0 bdbc 8093 343c 6895 fa3c
00000240: 7bdd 823d 2c3b d03c 81c6 1fbd 8ae2 4ebd
00000250: f013 94bd 79a1 aebd 2265 373d 37eb 63bd
00000260: 88c1 62bd 2006 083b f883 30bd b93b b3bd
00000270: 72ff 19bd 0676 2d3d 3723 87bd 9fbd 81bd
00000280: 6de7 47bd 1915 a6bd 9ef2 533d ba83 83bd
00000290: 706a 48bc 560b 523d c0a9 693c 308a 76bc
000002a0: 9335 5fbd d2bf 0b3d 18eb 9b3c 12fc 87bd
000002b0: dd42 953d 1b97 933d 2834 e6bc b873 c73c
000002c0: 5120 8cbd d878 a2bc 4083 2d3b 189f 3f3c
000002d0: 1087 1dbc 0c30 123d 7d1f 9a3d 8dc1 a03d
000002e0: 3d52 933d c659 423d b309 9dbd c9a6 9f3d
000002f0: 9682 98bd 44d1 923c 4adb 423d be7e 60bd
00000300: 7e4a 243d 9613 783d 5099 2abc 10c8 94bb
00000310: 23e3 2abd e2b9 98bd 865d 03bd 461b 783d
00000320: 68fc e83c 7ae8 77bd 1891 6bbd 0a39 60bd
00000330: 28d3 103d 8698 4cbd 40b2 bc3a 3f17 ae3d
00000340: a6ae 6bbd 08bc 85bd a611 4a3d 405c e33c
00000350: 89cd 70bd d295 3f3d 10f7 aebc c6a8 8fbd
00000360: 4612 5a3d 3418 bc3c adfc a43d caef 2e3d
00000370: 400c 743c 60fc 5ebc 78cb b53c b1d9 8b3d
00000380: 003a 5b39 9a26 9abd b473 9bbd 3a1b 343d
00000390: a874 3cbc 05f2 4ebd af77 b23d ad89 863d
000003a0: 6267 043d e88f 48bc ecc4 ee3c 8fdd 913d
000003b0: e0a1 e13b eba3 953d ee1e 8fbd cb2d 983d
000003c0: 131b 873d 0080 b6b9 c52a 2cbd afad 943d
000003d0: ec13 4ebd 0488 84bc 5edf 8abd a009 0e3c
000003e0: d8e0 51bd 827f 503d 2e91 573d 96d5 6a3d
000003f0: bf71 acbd c8c7 7ebd b8a1 a9bd 92ce a7bd
-0.041512907 0.0042151064 0.06032885 0.048025243 0.04403212 0.011213072 -0.00020235777 -0.013558738
0.038894348 -0.050019573 -0.025885269 -0.03299884 -0.07365009 0.017136067 0.07689645 -0.01156877
-0.056697343 -0.078389995 -0.08641818 -0.008257814 0.063725404 0.019619472 -0.016942546 -0.045359407
-0.025644295 0.08416418 -0.022803068 0.067345105 0.04025165 -0.060284376 0.06426921 0.057821892
0.026238523 0.04750303 0.0716422 0.023023412 -0.08082371 0.043959312 -0.069107324 0.016471729
0.002180688 0.01673907 -0.05890455 0.08212944 0.051782973 -0.08404936 -0.0057922825 0.0010915697
-0.05895505 0.07107466 -0.06026695 -0.0077139884 -0.08672775 -0.043937583 -0.052465346 0.062981166
-0.047090452 0.015336193 -0.017196491 -0.009823844 0.060620673 0.059370913 -0.049576715 0.008756131
-0.07564819 0.053783305 -0.0008993894 0.025144547 0.059356652 -0.026981696 0.020348415 0.037945263
-0.04801354 0.06323133 0.01359354 -0.04331009 0.073635004 0.018839873 0.029037148 0.049586646
-0.010815896 -0.025837988 -0.03128534 -0.08592138 -0.04189009 0.012618944 0.041386195 -0.06730145
-0.068631396 -0.013699643 -0.08404232 -0.07753928 0.06814843 0.053721227 0.06484947 -0.05079478
0.020317517 -0.04373398 -0.05492261 0.041243516 0.08568921 0.0004074648 0.02978696 0.03078644
-0.08537907 -0.008071408 0.053097837 -0.049559087 -0.010050401 0.009519696 -0.023193508 -0.07865057
-0.043930333 -0.08052469 -0.0020036623 -0.022111118 0.05748745 -0.04613867 -0.028847083 0.04603427
0.056979157 0.08388097 -0.06561656 0.03531014 -0.04294871 0.033602312 0.074012555 -0.045962885
0.05826997 -0.013516635 -0.07994075 -0.081910595 0.059471317 -0.021572255 0.06986789 -0.03448824
-0.06896297 0.04229202 -0.01539918 0.0705019 -0.058325127 -0.023186013 0.011021495 0.03058882
0.063899 0.02541884 -0.039007667 -0.050509013 -0.07230365 -0.08526892 0.044774182 -0.05564424
-0.055360347 0.0020755604 -0.043094605 -0.087516256 -0.037597127 0.042348884 -0.065985136 -0.063349955
-0.04880469 -0.08109493 0.05174505 -0.06421609 -0.012232408 0.051280342 0.014261663 -0.015047595
-0.05449445 0.03411848 0.019033 -0.066398755 0.07288144 0.072065555 -0.028101042 0.024347171
-0.06842101 -0.019833013 0.0026475936 0.011695646 -0.009614721 0.035690352 0.07525537 0.07849417
0.0719342 0.047448896 -0.076678656 0.077954836 -0.07446782 0.017922051 0.04757241 -0.05480837
0.040110104 0.060565554 -0.010412529 -0.004540451 -0.04172052 -0.07457329 -0.032071613 0.060572885
0.02844067 -0.06052444 -0.05751142 -0.054741897 0.035357624 -0.049950145 0.0014396384 0.085005276
-0.057539605 -0.06530005 0.049333237 0.02775395 -0.058789764 0.04677374 -0.021358043 -0.07014613
0.053240083 0.02296076 0.080560066 0.04270915 0.014895499 -0.013609976 0.022191748 0.06828631
0.00020907074 -0.07526894 -0.07590428 0.043971278 -0.011502422 -0.050523777 0.08714234 0.06569228
0.032325156 -0.012241341 0.029146634 0.07122337 0.006885752 0.073066555 -0.06988321 0.07430609
0.06596961 -0.00034809113 -0.042032976 0.0725969 -0.050311968 -0.016178139 -0.06780885 0.008669287
-0.05123982 0.05090285 0.05262869 0.057332598 -0.08420133 -0.062202245 -0.082827985 -0.08193697

dense2.bias f4 [64]
00000000: 80be ab3b 822f 7fbd 8755 b43d 3bc1 9f3d
00000010: 0347 8b3d 007f b8bc b028 c93c e740 88bd
00000020: d8ee 8dbd dc73 e7bc 3a6c a1bd f2c6 1a3d
00000030: 539f 813d 63f2 963d 7888 ac3c 3d20 37bd
00000040: ae03 593d 6fe3 24bd 0a6b 153d 60c4 92bb
00000050: 3ef8 1c3d 2184 a1bd 006f 033b 6b93 4fbd
00000060: ccc7 7fbd 5565 903d 03a2 57bd 7ea8 283d
00000070: a49f 95bc 2b27 90bd defc 31bd 1823 003d
00000080: 3dca a43d 56a6 4cbd f5d0 91bd 9fbc af3d
00000090: a02d 60bd 190a b03d 28ea f03c 14a4 99bc
000000a0: 36d6 2d3d a562 883d 7ab1 423d 24c2 8bbc
000000b0: 1622 6b3d 4099 ca3c a80d 0ebc 5c54 adbd
000000c0: f062 dd3c e05a 273b 4891 8bbd 221a 9dbd
000000d0: c2f0 55bd 34b0 00bd f233 333d daca 8abd
000000e0: 286a 063c 08aa d43c 9599 90bd 9a75 7abd
000000f0: 6e5d 423d d2bd 2c3d ae59 1e3d 78dd a3bd
0.005241215 -0.062301166 0.088053755 0.07800528 0.06800654 -0.022521496 0.024555534 -0.06653004
-0.069303215 -0.028253488 -0.07881971 0.037787385 0.06329217 0.0737045 0.021061167 -0.04470848
0.052982025 -0.04025596 0.036479034 -0.004478976 0.03832268 -0.0788653 0.0020055175 -0.050677698
-0.0624464 0.070505776 -0.05264474 0.04117631 -0.0182646 -0.07038721 -0.043454044 0.031283468
0.080463864 -0.049963318 -0.071199335 0.085808985 -0.05473101 0.08595676 0.02940853 -0.018754996
0.042440616 0.0665944 0.047532536 -0.017060347 0.057405554 0.024731278 -0.008670248 -0.08463356
0.027024716 0.0025536343 -0.068148196 -0.07671 -0.052231558 -0.03141804 0.04375071 -0.06776972
0.008204021 0.025959983 -0.070605434 -0.06114731 0.047452383 0.042173214 0.038659744 -0.08001226

output_layer.weight f4 [64, 64]
00000000: 80b3 50bd bcc1 863d 2c2b 123d a49a 47bd
00000010: 8022 94bd c037 d53d b099 b13c 46de a0bd
00000020: 202d ffbb 38e4 d0bc e4d4 533d d04c 2bbd
00000030: 20de d6bb 00bb 2c3c 9ef9 e13d c28e f9bd
00000040: 68fe f3bd f0c4 213c d0fd 793d 7acb e4bd
00000050: 0002 16bb 202f 9dbb 483a 873d d46a 513d
00000060: 38f4 c03c 3009 4e3c 009e d73a 2a00 a33d
00000070: b06c 0bbc 50d3 ecbd d4c6 3cbd 52d6 8abd
00000080: b45b a8bd 5697 fdbd 2a03 f3bd de74 c8bd
00000090: 0e49 8abd 5206 c8bd 5c60 0fbd 0642 833d
000000a0: 2e6b ad3d 18a0 87bc 60e2 b73d 96ad 86bd
000000b0: 58e5 fcbc 5413 2ebd 002a 38bc a6cf b33d
000000c0: 52f5 a03d 04dc 96bd b290 d5bd 5603 d0bd
000000d0: 80bd f0bb d4a4 a53d 22a3 f3bd 14d7 d9bd
000000e0: 609f d73b 3c04 8e3d 8497 9d3d 6687 a7bd
000000f0: 08fa 03bd 5ef6 e13d a2da cf3d 5010 9ebc
00000100: 98a1 76bd b4d5 0fbd 60e9 d6bc 7016 6f3d
00000110: c8e5 acbc 006e 44ba dc0f fa3d baf8 c0bd
00000120: 2a97 b8bd 98ab 0bbd e2f7 fb3d d24d f93d
00000130: 9466 74bd 1ce8 223d d4df fcbd 428f c33d
00000140: 8ef7 bbbd 6452 0e3d 90a1 3d3c 989c 4bbd
00000150: 36cb e03d fc05 7ebd a8c0 d33c c036 7e3b
00000160: e640 ad3d 3ca5 febd 0e35 e23d 4626 c13d
00000170: 8823 863c 3268 c33d 581a b63c 18b8 083d
00000180: 246e 0cbd 20ad bd3c 967c 86bd 0a49 c53d
00000190: 021f 9bbd 0494 233d b836 dabc 900f a93d
000001a0: 3853 cd3c 7440 da3d 3e5b 8ebd ace2 52bd
000001b0: a055 373d a0fb bd3b ec2e 5fbd f8d9 99bd
000001c0: e851 e53d 22da a7bd d860 a7bd c092 10bb
000001d0: 5c20 16bd 584d 12bd 0e72 973d d244 8ebd
000001e0: 56c4 a83d d0ef 61bd f48d 93bd a453 cebd
000001f0: 889c 8ebd 6c4a 973d e8cd c5bc 2ad2 af3d
00000200: acad 153d 4ce2 f03d 606f aebb 4c05 71bd
00000210: b892 983d 4eaf edbd a01c 743c 1ec6 8dbd
00000220: 68b8 923d c672 c9bd 54b8 afbd 8c22 4c3d
00000230: fe48 d3bd ee5c b4bd 2cf2 593d 3094 3cbd
00000240: 9c11 3e3d 001b e8bc 9ea2 c53d 7c79 383d
00000250: 1480 56bd 8ab9 e0bd dace ad3d dcbc 74bd
00000260: ec9c c2bd 1c56 d53d 0e9a 92bd e6ca e6bd
00000270: 40a9 38bb 3ac1 813d 0a9e d7bd e87b 3ebd
00000280: ac52 ecbd 842c 893d 002a b93a 9cd2 f93d
00000290: 2e2d a73d 7c7f 42bd 96ea e8bd 40c9 8abd
000002a0: 546d 133d a456 283d de2a ce3d 6e7f 963d
000002b0: 3c35 20bd 423b c23d ec29 44bd 0090 06bb
000002c0: d8c7 313d 6e0d e4bd 1817 ddbc 243e 413d
000002d0: 2e3b fb3d 904a d83c 9827 85bd 18ab 9e3d
000002e0: 4cd4 91bd f037 e53c f8d6 883d 4853 aa3c
000002f0: 88f5 a73d accd 053d f4d3 b03d 009f 263d
00000300: e2f6 8abd 2c50 4d3d 0eeb 87bd e006 6b3d
00000310: 1a32 883d 3e9f 833d 94c5 ddbd 72ea 8a3d
00000320: 4095 c6bd dc38 663d 3465 8b3d dc0c 27bd
00000330: 2050 003d 0892 dbbd d67d d8bd d44d 26bd
00000340: 408b 2f3b c28c d7bd d0fc 7a3d da6a 883d
00000350: 7003 5b3d 08ea 3ebd ba91 acbd 3699 a13d
00000360: 00bc 653a bc38 453d 2ac6 97bd e05d 88bb
00000370: be73 98bd 489a 633d 4007 57bd 5840 113d
00000380: a03c 64bc 6867 e93c d6db d73d 80da 9fbd
00000390: a0d7 ef3c 004a b2b9 6264 983d acdc 30bd
000003a0: 8803 443d 5082 593c bcbb f93d a011 cd3d
000003b0: 661e b23d cc1c 85bd 80aa 043d 00f7 e4ba
000003c0: c032 523d b8d3 61bd 303b 9ebc 2467 1dbd
000003d0: b0d7 96bc 88d0 f43c fc33 e63d 60cb 0b3d
000003e0: f690 853d dc0e f2bd 9839 b33d 585b 64bd
000003f0: e0ca c93d b420 debd 184e a4bc 48b6 96bc
-0.050952435 0.06579921 0.035685703 -0.04873146 -0.07233143 0.10411024 0.02167973 -0.07854895
-0.0077873617 -0.025499448 0.0517167 -0.0418213 -0.006557241 0.010542631 0.11033939 -0.12185432
-0.119137585 0.009873614 0.06103307 -0.111716226 -0.0022889376 -0.0047968775 0.06602913 0.05112727
0.023553953 0.012575433 0.0016450286 0.07959016 -0.0085098 -0.11563742 -0.046088055 -0.067791596
-0.08220616 -0.12382381 -0.11865838 -0.09787916 -0.06752215 -0.097668305 -0.035004005 0.06409077
0.084677085 -0.01655583 0.089787245 -0.06576078 -0.030871078 -0.0424989 -0.011240482 0.0877984
0.07859291 -0.073661834 -0.10427989 -0.10156886 -0.007346809 0.08088079 -0.118963495 -0.10636726
0.0065802783 0.069344014 0.07694915 -0.08180122 -0.03222087 0.11033319 0.10149123 -0.019294888
-0.0602127 -0.035115913 -0.026234329 0.058371007 -0.021105662 -0.0007493198 0.12210056 -0.09422441
-0.09013207 -0.03409919 0.12303139 0.12173046 -0.05966814 0.039772138 -0.12347379 0.09548809
-0.09178077 0.034746543 0.011574164 -0.049709886 0.109762594 -0.062017426 0.025848702 0.0038789958
0.08459644 -0.1243386 0.11045276 0.09431128 0.016374364 0.09541358 0.022229359 0.03337869
-0.034284726 0.023153841 -0.06566732 0.09633072 -0.07574274 0.03993608 -0.02663742 0.082549214
0.025064096 0.10656825 -0.06950997 -0.051485702 0.044759393 0.0057978183 -0.054488108 -0.07512277
0.11197263 -0.081959024 -0.08172768 -0.0022060126 -0.036651954 -0.035718292 0.07394801 -0.0694672
0.08240573 -0.055160344 -0.0720481 -0.10074547 -0.0696345 0.07387242 -0.024146035 0.085850075
0.03654258 0.11761913 -0.0053233355 -0.058842942 0.074498594 -0.11605702 0.014899403 -0.069225535
0.07164079 -0.098363444 -0.0858008 0.049837634 -0.103166565 -0.088067874 0.05320947 -0.04603976
0.046403512 -0.028333187 0.096501574 0.04503773 -0.05236824 -0.10972889 0.084867194 -0.059750423
-0.09502587 0.10416815 -0.0715829 -0.112691686 -0.0028177053 0.06335683 -0.105281904 -0.046504885
-0.11539206 0.06697944 0.0014126897 0.12198374 0.08162914 -0.04748486 -0.11372869 -0.06776667
0.035992935 0.041098252 0.1006677 0.07348524 -0.03911327 0.09483959 -0.047891542 -0.0020532608
0.043403476 -0.11135374 -0.026988551 0.047178403 0.12267147 0.026402742 -0.065016925 0.07747477
-0.071205705 0.027980775 0.06681627 0.020791665 0.08201128 0.032666847 0.08634177 0.040678978
-0.067853704 0.050125286 -0.0663663 0.057379603 0.06650181 0.064268574 -0.10828701 0.06782998
-0.09696436 0.05620657 0.06806412 -0.040783748 0.031326413 -0.107212126 -0.10570876 -0.040601566
0.002678588 -0.10524894 0.061276257 0.06661005 0.053470075 -0.04660991 -0.08426233 0.07890551
0.0008763671 0.04814981 -0.07410844 -0.0041615814 -0.07443951 0.055567056 -0.05249715 0.035461754
-0.01393047 0.02849169 0.10539977 -0.078053474 0.029277623 -0.0003400594 0.074410215 -0.0431792
0.04785493 0.013275698 0.121940106 0.10013127 0.08697204 -0.06499633 0.032389164 -0.0017468631
0.05131793 -0.05513355 -0.019315332 -0.03842844 -0.018413395 0.029884592 0.11240384 0.0341295
0.0652179 -0.118192405 0.087512195 -0.055751175 0.098531485 -0.108460814 -0.02005677 -0.018397465

output_layer.bias f4 [64]
00000000: 30dc f13c 20be 453c 303d 53bd 3055 0c3d
00000010: 9cf9 923d f2fa f5bd 1054 63bd e04b 003d
00000020: 8809 043d 3cd4 4fbd 28a2 bdbc 846e e5bd
00000030: 7a9a ee3d 5c2c e8bd 065a e23d 6067 ce3c
00000040: ba8e 843d 2063 f13d 80ff 193c 0c29 fa3d
00000050: b02f 763c 864e 87bd 60a8 d4bd ae2b c13d
00000060: c436 60bd 0cff 93bd 703c 1c3d a8b9 fabc
00000070: 30b5 48bd 2c87 003d 4076 8d3d 9c38 50bd
00000080: c0a1 33bd 309c ea3c b0e3 8b3c 0cbe 1a3d
00000090: d454 91bd d8b9 a23c e833 8a3c 683d 7ebd
000000a0: 4894 58bd f478 2f3d 8038 bb3c b8a2 9f3c
000000b0: c2b4 9ebd 6a42 c33d b426 9c3d d028 5e3d
000000c0: 6026 d9bd 6c1c 8cbd f81e 15bd 3091 25bc
000000d0: 807c 7fbb 24bd 2b3d d01d b6bc 2a03 91bd
000000e0: 98d1 adbc 888d a53d 08d7 aabc 3e17 c33d
000000f0: 18d0 ef3d 94af 62bd ec02 f13d 305a c8bc
0.029523939 0.012069255 -0.051572025 0.03426093 0.071765155 -0.12010755 -0.05550009 0.03132236
0.032235652 -0.05073951 -0.023148611 -0.1120272 0.11650558 -0.11336586 0.11052327 0.025195777
0.064725354 0.11786485 0.009399295 0.1221486 0.015026018 -0.06606774 -0.103836775 0.09432159
-0.05473973 -0.07226381 0.038143575 -0.030606106 -0.04900092 0.03137891 0.0690732 -0.050835237
-0.04385543 0.02863893 0.017076343 0.0377789 -0.07096258 0.019864008 0.016870454 -0.06207028
-0.052875787 0.04283996 0.02285409 0.01948677 -0.077493206 0.09534152 0.076245695 0.05423814
-0.106030226 -0.068413585 -0.036406487 -0.010105416 -0.003898412 0.041928425 -0.022231013 -0.070806816
-0.021218106 0.080836356 -0.020854488 0.095259175 0.117096126 -0.055343226 0.117681354 -0.024457067
